…
<div class="jp-Cell-outputWrapper">
<div class="jp-Collapser jp-OutputCollapser jp-Cell-outputCollapser">
</div>


<div class="jp-OutputArea jp-Cell-outputArea">
<div class="jp-OutputArea-child">
    
    <div class="jp-OutputPrompt jp-OutputArea-prompt"></div>


<div class="jp-RenderedText jp-OutputArea-output" data-mime-type="text/plain">
<pre>Model: &#34;sequential_4&#34;
_________________________________________________________________
 Layer (type)                Output Shape              Param #   
=================================================================
 dense_32 (Dense)            (None, 128)               1152      
                                                                 
 dense_33 (Dense)            (None, 128)               16512     
                                                                 
 dense_34 (Dense)            (None, 64)                8256      
                                                                 
 dense_35 (Dense)            (None, 64)                4160      
                                                                 
 dense_36 (Dense)            (None, 32)                2080      
                                                                 
 dense_37 (Dense)            (None, 16)                528       
                                                                 
 dense_38 (Dense)            (None, 8)                 136       
                                                                 
 dense_39 (Dense)            (None, 1)                 9         
                                                                 
=================================================================
Total params: 32833 (128.25 KB)
Trainable params: 32833 (128.25 KB)
Non-trainable params: 0 (0.00 Byte)
_________________________________________________________________
</pre>
</div>
</div>

</div>

</div>

</div><div id="cell-id=622aba10" class="jp-Cell jp-CodeCell jp-Notebook-cell jp-mod-noOutputs  ">
…
